…
    "        layers[4]))\n",
    "    model.add(Activation(\"linear\"))\n",
    "\n",
    "    model.compile(loss=\"mse\", optimizer=\"adam\")\n",
    "    return model"
   ]
  },
  {
   "cell_type": "code",
   "execution_count": 14,
   "metadata": {},
   "outputs": [
    {
     "name": "stdout",
     "output_type": "stream",
     "text": [
      "_________________________________________________________________\n",
      "Layer (type)                 Output Shape              Param #   \n",
      "=================================================================\n",
      "dense_6 (Dense)              (None, 32)                96        \n",
      "_________________________________________________________________\n",
      "leaky_re_lu_5 (LeakyReLU)    (None, 32)                0         \n",
      "_________________________________________________________________\n",
      "dense_7 (Dense)              (None, 16)                528       \n",
      "_________________________________________________________________\n",
      "dropout_2 (Dropout)          (None, 16)                0         \n",
      "_________________________________________________________________\n",
      "leaky_re_lu_6 (LeakyReLU)    (None, 16)                0         \n",
      "_________________________________________________________________\n",
      "dense_8 (Dense)              (None, 8)                 136       \n",
      "_________________________________________________________________\n",
      "leaky_re_lu_7 (LeakyReLU)    (None, 8)                 0         \n",
      "_________________________________________________________________\n",
      "dense_9 (Dense)              (None, 4)                 36        \n",
      "_________________________________________________________________\n",
      "leaky_re_lu_8 (LeakyReLU)    (None, 4)                 0         \n",
      "_________________________________________________________________\n",
      "dense_10 (Dense)             (None, 2)                 10        \n",
      "=================================================================\n",
      "Total params: 806\n",
      "Trainable params: 806\n",
      "Non-trainable params: 0\n",
      "_________________________________________________________________\n",
      "None\n",
      "Train on 794239 samples, validate on 198560 samples\n",
      "Epoch 1/10\n",
      "794239/794239 [==============================] - 33s 41us/step - loss: 771.9843 - val_loss: 26.5569\n",
…
